Numpy/mejor_modelo_DQN.pth (torch, 131298 bytes, 6 tensors)

layer1.weight f4 [128, 100]
00000000: b6db 643d d84c c83d f647 c33d 272c 59bc
00000010: 334d 51bd 23b7 583d 4689 0abc 8ea8 b73d
00000020: 0277 c8bc 5258 40bc 9412 60bc c67e bb3c
00000030: 6627 3a3d aa33 f33c b405 a43d 59dd 5ebd
00000040: 05f7 75bb 7e4f 6d3d 7c4e ab3c 5913 4dbd
00000050: 8244 c23d 724b 59bd b532 96bd 9406 5bbc
00000060: d688 90bd 86b3 253d 56b6 be3d 989f b8bd
00000070: fe9e c93b 5306 fa3b a002 4fbd 50c4 55bd
00000080: ac42 2b3d 6eee 913d c2f5 233d 6cde 91bc
00000090: 20f9 843d e4a5 c43d bd9e 6f3d e43c b43d
000000a0: 4abf 1b3d a09c 553d 4d8a 3cbd 9ab7 a2bc
000000b0: 9d33 7cbc 51af 97bd a751 c1bd 82eb 91bc
000000c0: 9f5a 723d 89f0 6cbd e718 51bd 8694 8c3d
000000d0: c628 9abd 293b 173c fe28 b2bd ca58 2d3c
000000e0: ff6b a5bd 40ca af3d de11 c23d bc59 8f3d
000000f0: b9ec 003c 0e61 aabd 5088 083d 67f9 29bd
00000100: b2a0 bdbd 1e32 1f3d 5202 273c a206 14bd
00000110: 3269 4cbd 40be 82bd b16a acbd 606c 813d
00000120: 0ee4 d83d 5a09 473d b206 033d 513a b6bd
00000130: 38d8 e03c e7a6 42bb 64c3 a53d 7e90 bc3d
00000140: a4b5 ce3d d8b2 bf3d d8c0 983d 8e31 96bc
00000150: bbfd 5c3d 78c4 b93d ad58 bfbd ba7f 5f3c
00000160: 3a6e ce3d a2b8 10bd 6a6a 3e3d 6ada 8b3d
00000170: aa31 bebc 4e19 c93d 7cc8 16bd b0ca 9c3d
00000180: 72d4 d0bb 4cd7 d13d a220 5d3d a63d b03b
00000190: da2b 61bd d823 613c a079 51bb c074 27bc
000001a0: 0c01 c5bc 5894 9ebd 7a9e 513d 20aa 5bbd
000001b0: 2897 52bc 0897 cbbc b0f4 0c3c 2660 163d
000001c0: 9369 a63d 6cfe 8abc 14a3 d03c f05a b8bd
000001d0: 3027 c33b 71e0 aa3d f0c9 3dbd 82f3 a3bd
000001e0: 0ae1 bebd 04a3 f43c 5083 813b a3c3 47bd
000001f0: 0d0a 893d 33ba b9bd 008c 3abd 3348 b63d
00000200: a1bc 903d c83f 8bbd ad3b 23bd 98e6 9cbd
00000210: 30ff a4bd 242f e13c aa06 09bd ea1b 7ebd
00000220: c8b3 a63c bd07 b93d 1819 89bd 2030 e6bb
00000230: 25f4 b7bd d0f0 94bb 0060 10bc 1673 083d
00000240: 4f5c 813d 3f4e cc3d b441 c03c 736c adbd
00000250: 8301 21bd 3ca0 86bd 2e52 89bd ea8a 0b3d
00000260: 8484 f13c b30b c63d 8cd9 cf3c ac85 d23c
00000270: d8d1 1dbc 80fc deba a87f 8cbc b570 a9bd
00000280: b0c1 a1bb a9fe b63d ae24 333d e774 903d
00000290: 3e06 343d 93f1 c9bd 302e 01bd 3cb8 cf3c
000002a0: d8c0 1fbc b9ee b83d 6012 6a3b 4907 813d
000002b0: 8b3e 91bd 462e 613d 3bf9 a2bd f33b 9d3d
000002c0: d8ca 483c ce81 193d 982d 0cbc 3053 0ebd
000002d0: a66e 353d 14d8 e3bc 5ee8 713d 2b89 9c3d
000002e0: 5033 53bc 9c5a 08bd de7c 8fbd 2a97 6fbd
000002f0: f58d bdbd a708 71bd 6033 bcbb d8c6 bf3c
00000300: 4809 dabc a4ad 88bd 3416 0abd 58b9 9bbd
00000310: 087c bdbc 42d1 093d a043 263b 339e 7ebd
00000320: 25be c93d 5680 463d 9664 9fbd d858 93bd
00000330: 8a6c bfbd c2f1 353d f8a7 a73c c824 bebc
00000340: 781c eabc 1645 02bd 009b 5cbb 6034 7fbd
00000350: 869d 90bd 09ed af3d 3a5e 313d 9cf9 f33c
00000360: b060 b43b a00e 243b 2e04 753d cd61 8d3d
00000370: 0df9 19bd 5aa0 4bbd 0238 1f3d ae5b 493d
00000380: 011f a43d d363 4fbd 4d35 883d a073 eebb
00000390: c00d 31bc 2221 583d ee49 0d3d 77f2 3cbd
000003a0: 84c2 e43c b5d2 873d a0f0 2d3b 18f7 103c
000003b0: ff3e b83d 6df8 abbd 80a2 9d3b 416e 9f3d
000003c0: 8a2e 51bd 14d4 c2bc a7b4 c7bd 907f 54bc
000003d0: 35db c5bd 8c63 a4bc a02c 20bd e76e b33d
000003e0: 205d 6cbd a895 b5bc 4aec 293d fd15 b0bd
000003f0: ac82 80bd 22db 3f3d fba3 a5bd 00eb 91bd
0.055873595 0.09780282 0.0953521 -0.013255156 -0.051099014 0.052909028 -0.00845558 0.08967696
-0.02447081 -0.011739807 -0.013676304 0.022887599 0.04544773 0.029687721 0.080089 -0.054410312
-0.0037531268 0.057937138 0.020911448 -0.05006728 0.09485723 -0.053050466 -0.0733389 -0.013368268
-0.070573494 0.04045441 0.093121216 -0.09014815 0.0061529865 0.0076301484 -0.050539613 -0.05218917
0.04181163 0.07125555 0.040029295 -0.017806254 0.06492829 0.096019536 0.058500994 0.088006765
0.038024224 0.052151322 -0.04603033 -0.019862939 -0.015393165 -0.07406486 -0.09439402 -0.017812494
0.059168454 -0.05784658 -0.05104914 0.06864266 -0.07527308 0.0092304135 -0.08699225 0.010580251
-0.08077239 0.08583498 0.09476064 0.06999537 0.007868939 -0.08319293 0.033333123 -0.041497614
-0.09259166 0.038866155 0.010193424 -0.036139138 -0.04990501 -0.063839436 -0.08418787 0.06319499
0.10590373 0.048592903 0.031988807 -0.08897842 0.027446851 -0.0029701532 0.080939084 0.09207247
0.10093239 0.093602836 0.07458657 -0.018334176 0.053952914 0.090706766 -0.093430854 0.013641292
0.10079618 -0.03533233 0.046488203 0.068287686 -0.023217041 0.098192796 -0.03681229 0.07655847
-0.0063729817 0.10246143 0.0539862 0.005378443 -0.05497346 0.013741456 -0.0031963363 -0.010220706
-0.02404835 -0.07743138 0.051176526 -0.05362904 -0.012853421 -0.02485229 0.00860326 0.036712788
0.081256054 -0.01696702 0.025468387 -0.0900172 0.0059555992 0.0834359 -0.04633516 -0.0800543
-0.093202665 0.029862888 0.0039524212 -0.048770558 0.0669137 -0.09068718 -0.04554367 0.0890049
0.07067228 -0.06799275 -0.039851833 -0.0766117 -0.08056486 0.027488299 -0.03345362 -0.06203834
0.020349398 0.09034679 -0.066942394 -0.00702478 -0.08982114 -0.0045453086 -0.008811951 0.03331288
0.063164346 0.09975862 0.02346883 -0.08467951 -0.039308082 -0.06573531 -0.06705128 0.034068026
0.029482134 0.096702 0.02537229 0.025698505 -0.00963255 -0.0017012507 -0.017150715 -0.0827345
-0.0049364194 0.08935291 0.043736152 0.07053547 0.043951266 -0.0986053 -0.03153819 0.025356404
-0.009750567 0.09029908 0.0035716519 0.06300218 -0.07092007 0.05497577 -0.07957693 0.0767745
0.012255393 0.037477307 -0.008555792 -0.034747303 0.044294976 -0.027812995 0.059059493 0.0764335
-0.012890652 -0.033289537 -0.070062384 -0.05849377 -0.09255592 -0.058846142 -0.005743429 0.023410246
-0.026615754 -0.06673744 -0.03371258 -0.07603711 -0.023130432 0.03364683 0.0025369897 -0.06216259
0.0985072 0.048462234 -0.07782857 -0.0719468 -0.09346874 0.04442001 0.020465836 -0.023210898
-0.028578028 -0.031804167 -0.0033661723 -0.062305808 -0.07061295 0.08590133 0.043302752 0.029782109
0.00550469 0.0025033131 0.05981844 0.0690342 -0.03759103 -0.04971347 0.038871773 0.0491597
0.08013726 -0.05063231 0.06650791 -0.007276967 -0.010806501 0.052765973 0.034494333 -0.04612967
0.027924784 0.06631986 0.0026541129 0.008847974 0.089963906 -0.08396993 0.0048106313 0.07784701
-0.051069774 -0.023782767 -0.097512536 -0.012969866 -0.09660951 -0.020066999 -0.039105058 0.08761387
-0.057706 -0.022166088 0.04148511 -0.08597944 -0.06274924 0.04683984 -0.080879174 -0.07124901

layer1.bias f4 [128]
00000000: 91ae a2bd c69d 563d cfa6 993d d8e9 05bc
00000010: ad83 2abd e0fa 90bd 9c09 143d 14dd 14bd
00000020: ddad a43d 61c3 06bd b03f aebd ecc3 353c
00000030: b65e 613d 1dde a63d 8404 adbd 1ebd 4a3d
00000040: 05ba 953d cca9 89bc 68f1 283c d9b7 2f3d
00000050: d5ff 893d f251 96bd 5843 2fbd 0a71 aa3d
00000060: 2e3c c5bd 60c5 7cbb 4e71 0a3d fd56 cabd
00000070: 6054 a9bd 0a23 a63d 59fa a3bd eeeb 563d
00000080: b257 b8bd 2e1a b93d 556a 73bc 7267 c83d
00000090: f84c 253d 668b 7b3d 33a9 6dbd 4c07 6b3d
000000a0: e7e5 48bd dcd8 703a 92b1 7ebd d460 8c3c
000000b0: da20 01bd 503b 893b a015 fc3b 9715 c2bd
000000c0: 00d7 25ba 285e 853c dfd6 a6bc cd2b 1bbd
000000d0: 4e7d ab3c 7a30 a1bc b458 543c 798d 623d
000000e0: 61d8 a63d e027 c0bd 592b 93bd 94ef 9a3d
000000f0: 2aea 65bd 1562 2f3d c802 983d b959 a13d
00000100: 5c9a 3a3c 6dec bcbd 4b81 86bc 57ce 47bb
00000110: 156d 8ebd 9875 db3b 29d8 053b f73d 7fbd
00000120: bdb4 adba f941 13bd 4911 833d 4da4 75bd
00000130: 1baf a63d 72de 543d 0260 aa3d 5d6e 863d
00000140: 5e09 793d 3b2e c2bd 2583 90bc 80a4 973a
00000150: c3e8 8dbd 365e 97ba 94de d6bc 1748 96bd
00000160: 71c6 bb3d 6b44 b8bb 0f61 4f3d 7bfb 9abd
00000170: 2efb a8bd 9255 bbbd de8a 743d c82f 033b
00000180: af78 433c b34d ddbc 3532 85bc adcf 89bd
00000190: 65cc a2bb 1874 853d eea0 51bd bc75 d43c
000001a0: 9528 82bd 9cc9 f8bb df8b 5e3d 32b8 ae3d
000001b0: 6e98 813d 48c8 f3bc 5dc0 adbc 486d 543d
000001c0: 81bf 8d3d f77e 983d f4cc 89bd ef38 b3bd
000001d0: dc4b a83d 2039 9b3d dfbf e03c c42f dd3c
000001e0: 207b 4dbd ae9d 9ebd e3b4 3bbd 92e0 2c3d
000001f0: b851 963c 68f4 c5bd 3ccf a03d a7b9 863d
-0.07943452 0.05239656 0.07502519 -0.0081734285 -0.041629482 -0.070791006 0.036141977 -0.03634365
0.08040974 -0.03290117 -0.08508241 0.011094075 0.055021964 0.081478335 -0.08448127 0.049496762
0.07310871 -0.016804598 0.010311462 0.04289994 0.06738249 -0.073398486 -0.042788833 0.08322342
-0.09630619 -0.0038569793 0.033799462 -0.09879873 -0.082680464 0.08112152 -0.080067344 0.052471094
-0.090011016 0.090381965 -0.0148568945 0.09785356 0.040356606 0.061412238 -0.05802269 0.057380006
-0.049047377 0.0009187588 -0.062181063 0.017136015 -0.03152547 0.004187979 0.0076930076 -0.09476774
-0.0006326288 0.016280249 -0.02036613 -0.03788357 0.020933773 -0.019676436 0.012960602 0.0553107
0.0814674 -0.093826056 -0.07186002 0.07565227 -0.05613152 0.042818148 0.074224055 0.07878441
0.011389341 -0.09224782 -0.016419074 -0.0030487978 -0.069543995 0.006697368 0.002042303 -0.062314954
-0.0013252717 -0.03595159 0.06399781 -0.059971143 0.081388675 0.051969953 0.08319093 0.06564019
0.06079995 -0.09481474 -0.01764066 0.001156941 -0.069291614 -0.0011548463 -0.02622918 -0.07337969
0.09168709 -0.0056233904 0.05062967 -0.07567497 -0.08251034 -0.091471806 0.059702747 0.0020017494
0.011930629 -0.027014589 -0.016259292 -0.06729064 -0.0049682134 0.06516284 -0.051178865 0.025935046
-0.06355397 -0.007592393 0.05433261 0.08531226 0.06327902 -0.029758587 -0.02120989 0.05186203
0.06921292 0.074460916 -0.06728545 -0.087510936 0.08217594 0.07579255 0.027435241 0.027000315
-0.05016625 -0.07744919 -0.045826804 0.042206354 0.018349513 -0.096657574 0.07852027 0.06578379

layer2.weight f4 [128, 128]
00000000: fe93 393d 975b 81bd 14a4 0e3d f8ee 8bbd
00000010: da63 2c3d d18b b33d 7751 e9ba 892b a53d
00000020: 7ec1 d4bc 3352 c03c 0180 95bd 34e0 0e3c
00000030: 315a 9a3d 5726 a6bd b20b 90bd 3107 c73c
00000040: b81c 443d dd9a 53bd cc60 d13c 3071 353c
00000050: 3bc4 a93d 983e 023d 8c38 b9bd 84c6 a83d
00000060: d424 ab3c 9f7d 8a3d 2571 9c3d 1aec 9a3d
00000070: 7241 a83d 911a 95bc bd66 5dbd 64df 9fbd
00000080: 84b8 873c 9f56 80bd 6c50 a23c 022b 65bc
00000090: 311f 08bd 91d8 a13d ce6f a3bd e2fb 4abd
000000a0: 9119 2abd b313 4dbd 0ecf 1d3d 1604 f8bc
000000b0: c470 763d 31f3 b43d 5a17 793d 3a17 713d
000000c0: cede 6d3d df36 af3d c763 9abc 4bf7 a3bd
000000d0: 965b 1f3d 1ae5 253d b1d1 42bd aa7c afbc
000000e0: 56d0 7d3d ef3f c33c 743e 03bd b246 b3bc
000000f0: b8ed 84bc 0aba 8dbd d663 4b3d 1438 18bd
00000100: 43d2 bcbd a60c 90ba c18f 5abd 80e2 9e3c
00000110: 1cc9 57bb 4c11 a93c 622a 383a 7cc5 d23c
00000120: 63f7 5dbd 570e e9bb c543 febb 5ee2 4bbd
00000130: b23a 263c 7702 91bd b195 483d bcfd b5bd
00000140: f872 e83c 61b2 a43d 9848 93bd 12d1 593d
00000150: 809b 703c c1c8 dcbb 0034 d239 25f3 edbc
00000160: 888b 093d 7d98 c7bc 7288 7ebd 74f0 333d
00000170: 4879 7a3c 008c 9dbc 5cf8 d53c 0813 8d3c
00000180: 9ce2 293c 177c 4d3c 7895 2e3d d4db 933c
00000190: 83d9 9c3d 8f3c 6c3d 1f8c d93c 1981 0dba
000001a0: e660 753d f18b 2cbc fead 793d 75b1 413d
000001b0: 4cfd 58bc e59b 72bd f41c 993d 6ba9 be3c
000001c0: 6c7a b4bd 5e4f 2a3d 0437 14bd 2b6c 693b
000001d0: 9494 20bd 46b5 91bd 59cb 0dbd 978d 2ebd
000001e0: 0518 073d 0efe 393d 2685 323d 15c6 3d3d
000001f0: f92c 393d 3f02 923d 2ce3 15bd 5012 c23b
00000200: f50d bf3c bc5c 30bd 1c39 61bd 1a1e 1fbd
00000210: 06a1 6a3d 7252 3f3d 1092 f9bc 6004 b3bb
00000220: dce3 85bc c36a 213c 227f 5b3d ed57 893d
00000230: efed 893d 00d4 5dbd 6c4b 933d 1cd4 703c
00000240: 377f 313d 6028 53bb 7ccf 8dbc bc36 c33c
00000250: ce9a 753d 22d5 7e3d 39cf 9e3d 6567 69bd
00000260: 5a57 213d 27ec 963d 4a07 173d ac5b 81bd
00000270: 36dc 173d 8db8 b33c e0b2 88bc 7670 2e3d
00000280: b7b8 21bd 0831 a8bd b607 3a3d 307c 3fbd
00000290: 0e38 a5bc 3ef0 133d 6bc5 1b3b 1dc6 b03d
000002a0: 5c96 93bd 563d 7b3d 0406 efbc 54df dc3c
000002b0: 54e6 6d3d c09f d63c 6c6a ad3c 40b6 f9bb
000002c0: 8917 4ebd 00b7 6aba 5328 f9bc faf4 18bd
000002d0: e684 933d 9b55 8e3d 90c4 56bd a00a d9ba
000002e0: 508b cf3b e049 60bd e825 eb3c a586 e03a
000002f0: 70ae e43c c85f 9fbb 8761 3bbd f2d5 233d
00000300: cfb3 66bd 60eb b53d fed0 313d 0572 83bd
00000310: b778 53bd 288b 8c3c 3a41 42bd 30f1 0e3c
00000320: 8949 1abd 004c 1f3d 5b1b a6bd caaf 753d
00000330: aa01 c33c a00a f93b f6d5 1f3d 692c 793d
00000340: b8db 01bd 2000 c63b d4fd 8ebc 445b 0ebd
00000350: 209a 57bb 453a 09bd db3c 31bd 23b3 65bc
00000360: 9e82 273d b377 a5bd 14a9 5d3c 5d30 8bbd
00000370: a4ac 6abd 1bee 9fbd 763c 61bc dfa4 ed3c
00000380: f27f 87bc e892 d2bc 4fc9 53bd 10df 98bc
00000390: d368 9e3d bad6 86bd 8a1f 4e3d 5622 7bbd
000003a0: fddd 9a3d a025 10bd 2e29 7a3d 8c03 01bd
000003b0: bf9c 713d 32c4 6b3d ccf7 2dbc 34f1 a83d
000003c0: 9c6f 783d 491d 36bd 812b 8d3d 246b 45bc
000003d0: a67f 8d3d 6c1c afbc 28d8 6d3c 3e40 623d
000003e0: 8f45 cabc 27ce aabd 1d04 aebd e0f7 9cbc
000003f0: be14 a6bd d24d 043d 145d 9c3d 469c 533d
0.045307152 -0.063162975 0.034824446 -0.06832689 0.042087413 0.08766902 -0.0017800768 0.08064944
-0.02597117 0.023476696 -0.072998054 0.008720446 0.07536734 -0.081127815 -0.07033481 0.024295421
0.04787895 -0.05166136 0.025558852 0.011074349 0.08289381 0.031797975 -0.090439886 0.08240989
0.020891584 0.067622416 0.07638768 0.07564564 0.08215608 -0.018201144 -0.054053057 -0.0780628
0.016567476 -0.06266522 0.019813739 -0.013987305 -0.03323287 0.07902635 -0.079803094 -0.04955662
-0.04152829 -0.050067615 0.03852754 -0.030275386 0.060166135 0.088354476 0.060813285 0.05886004
0.05807381 0.08555388 -0.018846406 -0.08006152 0.038905703 0.04050169 -0.04756326 -0.02142175
0.061966263 0.023834197 -0.03204198 -0.021884296 -0.016226634 -0.0692025 0.049655758 -0.037162855
-0.09219792 -0.0010990098 -0.05335975 0.019395113 -0.0032926267 0.02063813 0.00070253585 0.025728934
-0.054191004 -0.007112305 -0.0077595436 -0.049776427 0.01014583 -0.07080548 0.04897088 -0.088862866
0.028375134 0.080418356 -0.071915805 0.0531779 0.014685512 -0.006737799 0.00040093064 -0.029046604
0.033580333 -0.024364704 -0.062141843 0.043930486 0.015287705 -0.019231796 0.026119404 0.017220989
0.010368969 0.012541792 0.042623013 0.018049158 0.076586746 0.05767494 0.026556073 -0.000539796
0.059906863 -0.0105314115 0.060956948 0.047288377 -0.013243984 -0.059230704 0.074762255 0.023274144
-0.088124126 0.041579597 -0.03618528 0.0035617452 -0.039204195 -0.07114653 -0.034617756 -0.0426155
0.03298189 0.0454083 0.04358401 0.046331484 0.045208905 0.07129335 -0.0365936 0.005922593
0.023322085 -0.04305719 -0.054986104 -0.038847066 0.05728247 0.046709485 -0.030465156 -0.005463168
-0.016344003 0.009852114 0.05358804 0.06706224 0.06734835 -0.054157257 0.0719212 0.014699008
0.043334212 -0.003222011 -0.01731085 0.02382981 0.059962086 0.062214978 0.07754368 -0.05698337
0.039389946 0.07369261 0.036872186 -0.06316313 0.037075244 0.021938587 -0.016686857 0.04258772
-0.0394828 -0.08212477 0.04541751 -0.046749294 -0.02016833 0.036117785 0.0023768793 0.08631537
-0.07206413 0.06133779 -0.029177673 0.02696196 0.058080986 0.026199222 0.02116891 -0.007620603
-0.050315414 -0.0008953661 -0.030414736 -0.037343003 0.07203083 0.06949922 -0.05243355 -0.0016558953
0.006333746 -0.054757953 0.028704599 0.0017129971 0.02791521 -0.004863713 -0.045747306 0.039998956
-0.056323823 0.08882785 0.0434122 -0.06418232 -0.051628795 0.017156199 -0.047425486 0.008724496
-0.037667785 0.03889084 -0.081106864 0.0599821 0.023804504 0.0076001436 0.03902241 0.06083337
-0.03170368 0.0060424954 -0.017455019 -0.034755006 -0.0032898262 -0.033502836 -0.043270927 -0.01401976
0.04089605 -0.080794714 0.013529081 -0.06796334 -0.05729355 -0.07809087 -0.013747325 0.02900928
-0.016540501 -0.025704816 -0.051705655 -0.018661052 0.077348374 -0.065839246 0.050323047 -0.061312042
0.07561872 -0.035192132 0.06107443 -0.031497523 0.058987375 0.057560153 -0.010618161 0.08249131
0.060653314 -0.044461522 0.06893063 -0.01204947 0.06909113 -0.021375857 0.014516868 0.055237047
-0.024691371 -0.08340102 -0.08496878 -0.019161165 -0.08109425 0.032300778 0.07634941 0.051662706

layer2.bias f4 [128]
00000000: a547 85bd 55f0 c0bc 9e51 69bd 4080 5cbd
00000010: 8b02 643c 6518 31bd 9711 43bd 9602 923c
00000020: 006b 03bc dc6b 8fbd 5027 ca3b a42c 3fbc
00000030: a3be 3a3d d8c6 adbd e0cc 17bd 0024 fbbb
00000040: bf99 47bd a375 7abb 7ee3 5bbd a278 b23b
00000050: fafb bc3c b6c4 bd3b 6d36 963d 8247 1f3d
00000060: 0411 41bd 85e9 87bd aecd 79bc 9d3b 2bbd
00000070: ef9e 073d 4da2 3e3d e2b8 85bb 3096 3f3d
00000080: 91f6 5dbd 70ae a9bc 00eb 2bba d5c5 40bd
00000090: 4add 073d fc2b f3bc b560 aebd f40c 5bbd
000000a0: 7018 97bc 8a35 9d3c 0c1a 84bd 42a3 5d3d
000000b0: 8a27 6ebd c85f 58bc badb 0a3d 5409 6dbd
000000c0: fa64 22bd be42 913c f0c3 b5bc a9e4 97bd
000000d0: 9640 0a3d 7795 f9bc 595b a93d eade 1cbd
000000e0: 4404 573d 2c8e 183d 40d0 413c 9cb7 70bd
000000f0: a537 d8bc 4ee2 213d 9616 2ebd 7d92 93bd
00000100: e0e0 783c 01bb ae3d 1938 85bd 0a3d 913d
00000110: 9565 4a3a 2e38 653d 5080 4e3d 3615 8bbd
00000120: c9b9 8c3c ddcb 67bc cb59 203d 36fc 643d
00000130: 9ea7 7dbd 5f41 2f3b 32c4 abbd cd88 a43c
00000140: 63b0 073d 4e05 413d b639 883d 5154 9b3d
00000150: 4065 a43a c0ed 333d f45c a8bd 95bd b63d
00000160: 8443 9abd d065 853d bf47 bc3c c8da e93c
00000170: 2889 8e3c 3089 76bd a8e3 8bbd 1510 8e3d
00000180: 6b9f 29bc f95c 90bd 6e4c db3c b18c 6e3d
00000190: 7a98 483d 0e11 783d 6173 833d 102b f93b
000001a0: a103 f43c d7ac 343d 9a84 a7bb a10b 6e3d
000001b0: a9ae 1dbd f505 80bd dbf2 6b3d 0a70 82bd
000001c0: e639 213b d175 f0bc 19ee 4bbd 7621 7b3d
000001d0: 7b19 1dbc 398e 703d 9ec6 b8bd 205a 793b
000001e0: 9434 a33d dba8 903d 4fb8 aa3c 4bf6 09bd
000001f0: 6b3f 603d 558c 13bc 5320 9b3d 3310 503b
-0.06507806 -0.0235521 -0.0569626 -0.053833246 0.013916622 -0.043236155 -0.047624197 0.017823499
-0.008021116 -0.070029944 0.006169237 -0.011668358 0.04559196 -0.08485192 -0.03706062 -0.0076642036
-0.048730608 -0.003821709 -0.05368375 0.0054465095 0.02306937 0.005791272 0.073346 0.038886555
-0.047135368 -0.06636337 -0.015246792 -0.0418049 0.033110555 0.0465415 -0.0040808776 0.04677409
-0.054190222 -0.020713061 -0.000655815 -0.047063667 0.033170022 -0.02968406 -0.08514539 -0.05347915
-0.01844427 0.019190568 -0.064502805 0.054110773 -0.058143176 -0.01320643 0.033900954 -0.057870224
-0.03964708 0.01773202 -0.022188157 -0.0741666 0.033753 -0.030466778 0.08269376 -0.038298525
0.052494302 0.03724496 0.011829436 -0.058768854 -0.02639372 0.03952246 -0.04250201 -0.07205675
0.015190333 0.08531762 -0.065048404 0.070917204 0.00077208254 0.05596178 0.050415337 -0.06791155
0.017178433 -0.014147726 0.039148133 0.05590459 -0.06192743 0.0026741845 -0.08387031 0.020084763
0.0331272 0.0471242 0.066516325 0.075844415 0.0012542382 0.043927908 -0.082208544 0.08922879
-0.07532409 0.0651356 0.02298343 0.028546706 0.017399386 -0.060189426 -0.06830531 0.06936661
-0.01035295 -0.07048983 0.026769843 0.058239643 0.048973538 0.06056314 0.06418491 0.0076040104
0.029786887 0.044110145 -0.005112243 0.05811656 -0.038496647 -0.06251136 0.057604652 -0.06369026
0.002460116 -0.029353054 -0.049787614 0.061311208 -0.009588595 0.058729384 -0.09022258 0.0038048103
0.07969013 0.070634566 0.020839838 -0.03368215 0.05474798 -0.009005626 0.07574525 0.0031747937

layer3.weight f4 [21, 128]
00000000: d4b5 e93c 4086 cdbc c940 23bd 72c8 6b3d
00000010: 2e32 583d 5d09 51bd bc6b 9a3c 1345 a0bd
00000020: b604 673d ea8d 34bd 4166 8d3d 0e02 5b3d
00000030: 9500 b03d 82aa 3c3d 42dd 513d 5965 5d3c
00000040: f457 863c a354 933d 7e62 41bb fe46 a03d
00000050: e234 71bd 8c90 f73c 59c7 87bc 5048 cc3b
00000060: e06e e9bc ee04 5b3d 93ae f4bc 64ca 06bd
00000070: c721 4d3c 9f9f a33d 0666 5c3d d8b6 d3bc
00000080: 9440 8f3d ea1b 80bd 9874 d23c 208f febb
00000090: c325 913d 90f0 ea3c 787e 313c e0bd 0ebd
000000a0: acbc ddbc 27a4 abbd 3d22 ac3d fef9 b2bd
000000b0: 5843 023d 07c3 8e3d 263a b6bc 3053 e93b
000000c0: 7448 353c 2513 5abd 5348 6e3d c85d aabd
000000d0: 5067 bb3b 581d adbd 5093 99bd 74c1 2b3c
000000e0: e499 8e3c 6f2e 1cbd 5451 61bd 66a4 7bbd
000000f0: d9c7 8c3d b1e8 913d 603c 8cbd 6892 c73c
00000100: d2e0 373d be03 f2bc 8483 46bd fa5c 2b3d
00000110: b85a 703c 4e19 b1bd c3d6 273d a265 40bd
00000120: 4314 abbd 63aa 4c3d 58a4 7c3d 99bd 4bbd
00000130: 8567 823d 9e95 1cbd 3110 3b3d d1f9 a8bd
00000140: 4ed5 383c 5202 8fbd 0feb e03c 5864 6a3d
00000150: 68e2 7fbd f9ff 8e3c 9c15 903c d9df d93c
00000160: 7057 053d 7bc9 9f3d 3dd7 903d 3f42 5e3c
00000170: bdcb 98bd e9bc afbd d3e2 063d 35b0 8f3d
00000180: bf13 4d3d 1264 3a3d 4f03 8dbc 267d 2fbd
00000190: 733c a33d 492e f93b 0cc1 c9bc 3ae8 a2bc
000001a0: 6383 a03d 58c4 44bc fc28 143d 3882 d53c
000001b0: 48e7 97bd 6ae0 1f3d f98f 1d3d 33f7 3ebd
000001c0: d194 1f3d 604a b63b 7117 aa3d 0c7b 93bd
000001d0: 80b4 59bd 369b 833c 1fb8 843d 656f 9d3d
000001e0: 2337 e53c 025d 28bd f0cc 6a3c 1cc2 01bd
000001f0: 10d7 acbd 250a 443d 2ea5 1fbd 0e30 0f3d
00000200: b37c 863d a8b9 523c 3147 1fbd 1326 be3c
00000210: 88cd 273c 3aa6 513d c607 9e3d 393c 803c
00000220: 7fd5 ab3d c248 0cbd 251d 5dbd 333f a23d
00000230: b39f 183d d088 fd3b 54ea 5dbd d23d c6bc
00000240: 0011 603a edbc 9f3d e201 6f3d 06c8 b3bd
00000250: 8fc6 8e3d f725 35bd 37ff 13bd 5087 c73c
00000260: d86b 55bc 9e63 1bbd 1136 82bd e566 31bd
00000270: 23bc 91bd 70d3 99bc 19c6 a43d 6cbe 953c
00000280: dba9 7bbd 0491 2ebd ba54 ebbc 9e65 013d
00000290: 7f50 8dbd b38b 0a3d d06c 8b3b 8059 3abb
000002a0: 202e 53bc 90dd b73b 6898 853d 53e5 3bbd
000002b0: 02b9 a8bd 7ea5 573d 4f3e 8abd d625 383d
000002c0: 587f babc 1dde 27bd b8db 17bd fd80 91bd
000002d0: 8850 20bd 2040 3f3c b86a 0d3d 6491 4b3d
000002e0: 176e a23d cda4 90bd 8ead 3a3d 8a1d 32bd
000002f0: 346b 6abd 24b7 b3bd 3940 863d ffd3 b0bd
00000300: 68f1 463c eaa8 38bd b2be 3e3c eed8 e2bc
00000310: 2e96 223d 4bec 943d 02d4 4f3d b82c 4a3c
00000320: 2244 9fbd 2254 6dbd f870 a6bd 351d a8bd
00000330: b734 32bd 01fe 6c3d 7ad0 783d 70aa 1ebd
00000340: cb5a 493c a02c a0bd 2bfb 0ebd a2e5 3f3d
00000350: 548b da3c d89d 2bbd cfd9 9cbd 77dd 88bc
00000360: 9742 a43d 3588 bbbc 7fc7 be3c 3449 e13c
00000370: 88a7 7bbc 7037 f43c a77d c5bc 8ad3 313d
00000380: e23b 81bd d03b 3fbd 3497 5cbd 138b 0bbd
00000390: d38d 9cbd b8a2 123d 4854 19bc c84c 67bc
000003a0: 392a 14bd ebe1 2dbd 2e3b b3bd cc12 8e3d
000003b0: 8cba b7bc dcf1 36bd af91 b0bd 980c 873d
000003c0: 13c5 acbb 1047 abbb 1076 d33b 422d 5cbd
000003d0: 431a 86bd ca80 593d df2b cebb 71fa 2cbd
000003e0: 3088 dd3c 1fdd 2bbd da6b 6b3d 957a 9d3d
000003f0: 319c 8e3d d843 87bd 0467 2fbd ceff 97bd
0.028529085 -0.02508843 -0.039856706 0.057564206 0.05278223 -0.05103432 0.0188502 -0.07825675
0.056400977 -0.044080652 0.06904269 0.053468756 0.08593861 0.046061046 0.0512364 0.013512933
0.016399361 0.071938775 -0.0029508169 0.07826041 -0.058888324 0.030220293 -0.016574549 0.0062342063
-0.028495252 0.0534715 -0.0298684 -0.03290786 0.01252026 0.0798943 0.053808235 -0.025844023
0.06994739 -0.06255324 0.025690362 -0.0077685267 0.070872806 0.028679162 0.010833375 -0.034849048
-0.027067505 -0.08380919 0.08404968 -0.087390885 0.031802505 0.06970792 -0.022244524 0.0071205124
0.011064637 -0.053240914 0.058174442 -0.083186686 0.005719103 -0.084528625 -0.07498801 0.010483135
0.017407365 -0.03813022 -0.0550092 -0.06143608 0.068740554 0.071244605 -0.06847453 0.024361804
0.04489214 -0.0295428 -0.048465267 0.041836716 0.014670067 -0.086474046 0.040976297 -0.046971925
-0.08353474 0.04996718 0.061680168 -0.04974136 0.06367401 -0.038228624 0.04566974 -0.08250774
0.011281325 -0.069828644 0.027455835 0.0572246 -0.062471777 0.017456042 0.01758843 0.026595997
0.03255409 0.07802101 0.070723034 0.013565599 -0.07460735 -0.08580954 0.03293116 0.07016031
0.05006766 0.04550559 -0.017213492 -0.04284396 0.07970514 0.0076043946 -0.024628185 -0.019886125
0.0783756 -0.012009703 0.0361719 0.02606307 -0.0741716 0.039032377 0.03846738 -0.046622466
0.03896028 0.0055630654 0.08305252 -0.07201204 -0.053150654 0.016065221 0.06480431 0.076872624
0.027980393 -0.041104324 0.0143310875 -0.031679258 -0.084394574 0.047861237 -0.038975887 0.034957938
0.06566753 0.012861647 -0.038886253 0.023211515 0.010241874 0.051183917 0.077163264 0.015653716
0.083903305 -0.034249075 -0.053982873 0.079222105 0.037261676 0.0077372566 -0.05417855 -0.0241994
0.0008547455 0.077997066 0.058351405 -0.08778386 0.06971466 -0.04422566 -0.036132064 0.024356514
-0.0130262 -0.0379368 -0.063579686 -0.04331102 -0.07115962 -0.01877758 0.08045597 0.018279277
-0.061441284 -0.042618766 -0.028726924 0.03159105 -0.06900119 0.033824634 0.004254915 -0.0028434694
-0.012889415 0.005611129 0.0652321 -0.045872997 -0.082384124 0.05264806 -0.06750166 0.04495796
-0.0227658 -0.040983308 -0.037074775 -0.07104681 -0.0391393 0.011673003 0.034525603 0.049699202
0.07931154 -0.07062683 0.04557567 -0.043485202 -0.057231143 -0.08775166 0.06555218 -0.08634185
0.012142517 -0.045082964 0.011642145 -0.02769133 0.039694004 0.07271632 0.050739296 0.012339763
-0.07776667 -0.057941563 -0.08127016 -0.08208696 -0.043507304 0.057859425 0.060745694 -0.03873676
0.012289713 -0.078210115 -0.0349075 0.046849854 0.026677765 -0.04189858 -0.07658731 -0.016707165
0.080205135 -0.022892097 0.023288487 0.027500726 -0.015359767 0.02981159 -0.024107767 0.04341463
-0.0631025 -0.0466879 -0.053855136 -0.03406818 -0.07644238 0.035799712 -0.009358473 -0.014117427
-0.03617308 -0.04245178 -0.08751522 0.06937179 -0.02242782 -0.04466425 -0.08621537 0.06594199
-0.0052725165 -0.005226977 0.006453283 -0.0537541 -0.06547978 0.05310134 -0.006291851 -0.042231027
0.027042478 -0.041958924 0.057475902 0.07689396 0.06963385 -0.06604737 -0.042822853 -0.07421838

layer3.bias f4 [21]
00000000: d10d 72bd 2398 883d 066a 863c 1032 543c
00000010: 5ed7 7bbd 161e 2f3d 3593 33bc b988 b2bc
00000020: bc37 a1bd d2db fb3c 6208 afbd 2867 113d
00000030: 1068 983d 66ee 0d3d 1655 02bc c25a 43bd
00000040: 6884 cdbc 84f2 8b3d 5e90 acbd 5cac 813d
00000050: e514 afbd
-0.059095208 0.06669643 0.016407978 0.012951389 -0.061484687 0.0427533 -0.01096039 -0.02179371
-0.078719586 0.030744467 -0.08546521 0.035498768 0.07441723 0.034651183 -0.007954856 -0.047693975
-0.02508755 0.068333656 -0.08425973 0.06331703 -0.08548907
