Numpy/mejor_modelo_DQN.pth (torch, 693218 bytes, 6 tensors)

layer1.weight f4 [128, 1000]
000000 09 c9 0e 40 cb 5a 0f 40 dc 9e 0d 40 99 8d 0e 40
       2.2310202 2.2399166 2.212821 2.2273924
000010 8b 88 0d 40 98 0f 0f 40 45 85 0c 40 b5 6c 0e 40
       2.211459 2.2353268 2.1956341 2.225385
000020 16 43 0d 40 3b d0 13 40 69 a9 0c 40 2e fc 0d 40
       2.2072196 2.3095844 2.19784 2.2185168
000030 3e 0b 0f 40 46 9e 0c 40 ae ab 0d 40 29 76 0e 40
       2.2350612 2.1971602 2.2136035 2.225962
000040 79 63 0f 40 a0 e9 0e 40 4a c5 0f 40 a7 e5 0f 40
       2.2404463 2.2330093 2.2464166 2.2483919
000050 b5 77 63 40 f0 de 0e 40 e0 f7 0e 40 fe 5e 0f 40
       3.5541813 2.232357 2.233879 2.2401729
000060 56 f6 0e 40 8c a0 0e 40 62 4e 16 40 63 b1 0c 40
       2.2337852 2.228549 2.348534 2.1983268
000070 18 f8 0c 40 3a e0 0c 40 f2 0f 0e 40 cf b3 0d 40
       2.2026424 2.2011857 2.2197232 2.2140996
000080 6b a4 0f 40 9b 11 0c 40 9d f0 0f 40 d3 ab 0d 40
       2.2444103 2.1885746 2.2490609 2.2136123
000090 28 6d 0c 40 75 1b 0f 40 3c 60 0c 40 83 fa 0c 40
       2.1941624 2.2360508 2.1933737 2.20279
0000a0 bc 43 0f 40 92 e0 0d 40 e2 67 0d 40 d9 a8 0c 40
       2.2385092 2.2168317 2.2094655 2.1978056
0000b0 4d 17 0d 40 ba 61 0c 40 c5 80 0e 40 15 84 0d 40
       2.2045472 2.1934648 2.2266095 2.2111866
0000c0 b1 a4 0c 40 0d 0f 11 40 51 02 10 40 92 cb 0f 40
       2.197552 2.2665436 2.2501414 2.2468
0000d0 8b 85 0e 40 9e 91 0c 40 11 12 0e 40 39 5c 0c 40
       2.2269008 2.1963878 2.2198527 2.1931288
0000e0 f6 08 10 40 e3 09 0f 40 25 9e 0c 40 15 3b 28 40
       2.250547 2.2349784 2.1971524 2.628606
0000f0 27 1c 10 40 e6 cf 0e 40 9f ad 0d 40 74 5d 0d 40
       2.2517183 2.231439 2.213722 2.208829
000100 c2 bc 0e 40 30 e6 0e 40 a8 16 0e 40 bf 33 0f 40
       2.2302709 2.2327995 2.2201328 2.2375333
000110 3e 14 0e 40 6e fc 0e 40 51 02 0d 40 a7 f2 0c 40
       2.2199855 2.234157 2.2032664 2.2023103
000120 d5 aa 0d 40 6e 86 0f 40 26 3d 0d 40 d3 5b 0e 40
       2.2135518 2.24258 2.2068572 2.2243545
000130 01 ad 0c 40 75 56 0c 40 b2 f0 0d 40 41 7e 0c 40
       2.1980593 2.192777 2.2178159 2.195206
000140 f9 85 0f 40 98 ac 0c 40 23 f3 0f 40 cb c7 0c 40
       2.242552 2.1980343 2.249215 2.1996944
000150 7a fe 0e 40 f0 3d 0e 40 00 7d 0e 40 b5 80 0d 40
       2.234282 2.2225304 2.2263794 2.2109807
000160 64 6c 0d 40 68 74 0d 40 43 72 0c 40 0a 33 0e 40
       2.2097406 2.2102299 2.194474 2.2218652
000170 33 0a 0d 40 83 ae 0c 40 29 5d 0d 40 23 47 0d 40
       2.2037475 2.1981514 2.208811 2.2074668
000180 1b 79 0c 40 50 f7 0d 40 35 0f 0f 40 52 cb 0f 40
       2.1948917 2.2182198 2.2353032 2.2467847
000190 1e 52 0e 40 fb 97 0c 40 29 9e 0f 40 bd f8 1d 40
       2.223762 2.1967762 2.2440283 2.4683068
0001a0 d8 6f 14 40 00 cf 0c 40 b9 42 0c 40 d1 db 0c 40
       2.3193264 2.2001343 2.1915724 2.2009165
0001b0 b2 62 0e 40 d4 de 0f 40 2f ff 0f 40 46 65 0c 40
       2.224774 2.2479753 2.2499502 2.1936812
0001c0 b1 c3 0e 40 66 81 0f 40 16 93 0f 40 0d f2 0e 40
       2.230694 2.2422729 2.2433524 2.2335236
0001d0 e4 3a 0e 40 39 3b 0e 40 80 61 0f 40 c7 9e 0e 40
       2.2223444 2.2223647 2.240326 2.228441
0001e0 f1 ba 0c 40 79 50 10 40 0c b2 0c 40 d8 69 0c 40
       2.19891 2.2549117 2.198367 2.1939602
0001f0 88 4e 0c 40 ff 01 0e 40 5e 2c 0d 40 f3 34 0e 40
       2.1922932 2.2188718 2.205833 2.2219818
000200 3f 36 10 40 0b 31 0d 40 56 36 0e 40 55 87 0d 40
       2.253311 2.2061183 2.2220664 2.211385
000210 32 e4 0f 40 43 ff 0f 40 5c 39 0f 40 53 d7 0d 40
       2.248303 2.249955 2.237876 2.2162673
000220 6e 89 0c 40 f5 41 0d 40 ff 08 10 40 72 96 0e 40
       2.195888 2.2071507 2.250549 2.2279325
000230 d1 24 0d 40 f7 5b 0c 40 25 45 0f 40 a4 81 0e 40
       2.205372 2.193113 2.2385952 2.2266626
000240 21 93 0d 40 99 13 0e 40 34 f7 0e 40 ae 38 0c 40
       2.212105 2.2199461 2.233838 2.1909595
000250 bb bd 0d 40 47 95 0e 40 f5 6d 0d 40 a2 02 0f 40
       2.2147052 2.2278612 2.2098362 2.2345357
000260 3a 83 0e 40 9e d9 0f 40 ea 2c 0e 40 68 79 0c 40
       2.2267594 2.2476573 2.2214913 2.19491
000270 08 91 0d 40 19 d6 0e 40 fe 06 0d 40 b8 48 0c 40
       2.211977 2.2318175 2.2035518 2.1919384
000280 fa d3 0f 40 c3 0b 0c 40 0c 94 0d 40 5c f4 0e 40
       2.247313 2.1882179 2.212161 2.2336645
000290 22 88 0e 40 ad 6f 0c 40 98 7f 0f 40 0d 13 0d 40
       2.227059 2.1943161 2.2421627 2.2042878
0002a0 91 55 0e 40 e2 54 0c 40 4f 73 0f 40 4d 42 0f 40
       2.2239726 2.1926808 2.2414129 2.2384217
0002b0 89 d2 0e 40 0f a3 0d 40 27 7f 0f 40 cb ec 0c 40
       2.2316 2.2130773 2.2421358 2.2019527
0002c0 00 09 0d 40 1d 51 0c 40 77 f0 0c 40 a1 96 0d 40
       2.2036743 2.1924508 2.2021768 2.2123187
0002d0 1a 5e 0e 40 54 53 0f 40 78 22 0c 40 30 64 0f 40
       2.2244935 2.239461 2.1896038 2.24049
0002e0 4b 15 0f 40 b7 b2 0c 40 40 97 0f 40 b0 6c 18 40
       2.2356746 2.198408 2.2436066 2.3816338
0002f0 cf 6e 0d 40 46 b4 0c 40 e0 4d 0d 40 4a 1a 0d 40
       2.2098882 2.198503 2.207878 2.2047296
000300 2e ad 0d 40 22 03 10 40 9a a1 0c 40 1b 35 26 40
       2.213695 2.2501912 2.1973634 2.5969913
000310 1c d4 0e 40 43 e1 0f 40 79 e2 0d 40 51 cd 0d 40
       2.2316961 2.248124 2.2169478 2.2156565
000320 d1 c0 0d 40 58 50 0e 40 f7 a0 0c 40 2f 7e 0f 40
       2.2148936 2.2236538 2.1973245 2.2420766
000330 6e ed 0d 40 56 ea 0e 40 65 34 0c 40 57 54 0f 40
       2.2176166 2.2330527 2.190698 2.2395227
000340 ed 1e 0c 40 34 fa 0e 40 0a 6f 10 40 89 61 0e 40
       2.1893876 2.2340212 2.2567773 2.224703
000350 9b b1 0d 40 87 4c 0d 40 58 ed 0e 40 21 b6 0c 40
       2.2139652 2.2077959 2.2332363 2.1986163
000360 a9 31 0e 40 c8 80 0d 40 dd 3c 0e 40 81 74 0d 40
       2.221781 2.2109852 2.2224648 2.2102358
000370 82 86 0e 40 f2 fe 0f 40 e3 b6 0e 40 df c2 0d 40
       2.2269597 2.2499356 2.2299125 2.215019
000380 69 dd 0e 40 59 29 0d 40 23 82 0d 40 5d 23 0d 40
       2.2322638 2.2056487 2.211068 2.2052834
000390 e9 c7 0f 40 f8 e2 0f 40 85 91 0f 40 a9 29 0f 40
       2.2465765 2.248228 2.2432568 2.2369177
0003a0 0b 99 0d 40 2b 7a 0c 40 90 90 0c 40 ea 33 0d 40
       2.212466 2.1949565 2.1963234 2.2062936
0003b0 cf b3 0f 40 db bd 0f 40 ea 5c 0d 40 98 1b 0c 40
       2.2453496 2.2459629 2.208796 2.1891842
0003c0 ab 90 0c 40 96 d0 0e 40 f3 e2 0f 40 7f 42 0e 40
       2.1963298 2.231481 2.248227 2.2228086
0003d0 31 2f 0e 40 ea 15 0c 40 8c 2f 0d 40 9b 8e 0f 40
       2.2216303 2.1888375 2.206027 2.243079
0003e0 c1 f0 0d 40 68 9a 0e 40 d0 55 0c 40 37 6a 0e 40
       2.2178195 2.2281742 2.1927376 2.2252328
0003f0 f0 4f 0c 40 fc 2f 10 40 2e d6 0f 40 1f 31 0d 40
       2.192379 2.2529287 2.2474475 2.206123

layer1.bias f4 [128]
000000 3a 01 c1 40 d1 a3 e0 40 0c 32 cb 40 a1 79 d8 40
       6.0313997 7.019997 6.349859 6.7648473
000010 d2 9d c6 40 22 fb ca 40 52 5d f7 40 13 84 c7 40
       6.206765 6.343156 7.7301416 6.2348723
000020 07 85 c7 40 ed c9 b0 bb a9 ea c5 bc 08 39 dd 40
       6.2349887 -0.005395165 -0.024159746 6.913212
000030 ee 5d c5 40 fa 61 c8 40 b3 cb d1 40 dc 28 d1 40
       6.167716 6.26196 6.5561156 6.5362377
000040 4c 90 c7 40 5f 3a d3 40 fb 44 c0 40 6d 07 c8 40
       6.2363644 6.6008754 6.0084205 6.2509065
000050 4e f8 de 40 88 0a de 40 29 0e c5 40 88 89 de 40
       6.9678106 6.9387856 6.1579785 6.9542885
000060 28 31 c7 40 27 85 e0 40 fa 62 c7 40 2b f7 d5 40
       6.2247505 7.016254 6.230832 6.686422
000070 ac 7b c6 40 24 17 63 bd 20 24 ce 40 bf c2 c5 40
       6.2025967 -0.05544199 6.44191 6.1800227
000080 64 26 cc 40 d0 20 c8 40 ec a6 c9 40 c5 d9 d4 40
       6.3796864 6.2540054 6.301626 6.651583
000090 e8 58 dd 40 47 94 df 40 53 97 c9 40 a0 af 00 41
       6.917103 6.9868503 6.299722 8.042877
0000a0 28 9f cc 40 cf ad cc 40 b6 42 76 bd 34 30 c7 40
       6.3944283 6.396217 -0.060122214 6.224634
0000b0 e6 a5 b0 bc 64 12 e9 bc 7a 75 de 40 8d cd c8 40
       -0.021563482 -0.028451152 6.9518404 6.2750916
0000c0 7d c1 d2 40 7c d7 b9 40 00 b6 c7 40 c6 0a ca 40
       6.586119 5.8075542 6.240967 6.313815
0000d0 75 bd d9 40 e5 b3 c8 40 c9 19 d8 40 72 19 de 40
       6.804377 6.27196 6.7531476 6.940606
0000e0 26 1c ca 40 dd 47 ca 40 7f c5 df 40 3c da cf bc
       6.315936 6.3212724 6.9928584 -0.025372617
0000f0 23 3c d8 40 68 38 de 40 4f 5b d4 40 48 2a d2 40
       6.757341 6.9443855 6.636146 6.5676613
000100 73 94 c9 40 0e 47 c7 40 46 ab c9 40 74 8f bb 40
       6.2993712 6.2274237 6.3021574 5.8612614
000110 d1 4e cc 40 20 e1 de 40 f8 e9 dd 40 be 5d 65 bd
       6.384621 6.964981 6.9348106 -0.055997603
000120 75 de 01 41 1f 2b c5 40 74 44 cc 40 ec 87 c8 40
       8.116811 6.161514 6.383356 6.266592
000130 d8 5b c3 40 79 5a cb 40 e0 32 c7 40 e3 ad 50 bd
       6.1049614 6.354794 6.2249603 -0.05094708
000140 f3 2d c7 40 af 4c c6 40 cd ca d8 40 2b 1b ca 40
       6.224359 6.196861 6.774756 6.3158164
000150 ca 16 ca 40 9a 74 b6 40 29 c0 c4 40 c8 17 93 bd
       6.315282 5.7017336 6.148457 -0.0718227
000160 c8 bc cf 40 8c 52 3a bc ca c2 dc 40 d5 26 db 40
       6.4917946 -0.01137222 6.898778 6.84849
000170 c2 31 d6 40 25 e1 c9 40 16 7b b4 bc 19 06 c7 40
       6.693574 6.3087335 -0.022031348 6.2194943
000180 30 65 c9 40 40 44 c8 40 c0 fd d8 40 32 48 c8 40
       6.293602 6.2583313 6.7809753 6.258813
000190 8d f2 df 40 4c 27 ca 40 6d c9 df 40 5e 36 d3 40
       6.9983582 6.317297 6.993338 6.6003866
0001a0 1a 61 db 40 e7 30 e0 40 b4 25 c7 40 94 6c e1 40
       6.855603 7.0059695 6.2233524 7.044504
0001b0 b0 dc b7 40 07 4a cb 40 4e 2b cb 40 8b 55 c6 40
       5.7456894 6.3527865 6.349036 6.1979423
0001c0 1a 39 20 bd ed 8b c4 40 49 b9 d2 40 aa 9c be 40
       -0.039116956 6.142081 6.585118 5.956624
0001d0 c2 1d e0 40 f2 e1 d3 40 11 d4 bc 40 14 5a 74 bd
       7.0036325 6.621331 5.900887 -0.059656218
0001e0 11 a0 14 bd a8 bf db 40 2f b7 c8 40 f2 67 c6 40
       -0.036285464 6.8671455 6.2723613 6.2001886
0001f0 7e 95 c2 40 ff 1f 13 bd 38 fe de 40 b6 f3 de 40
       6.0807486 -0.035919186 6.9685326 6.96725

layer2.weight f4 [128, 128]
000000 5e a4 32 40 10 3a 64 40 fb 1e 40 40 9b 91 5a 40
       2.7912822 3.5660439 3.001891 3.415137
000010 af f3 31 40 97 0b 42 40 87 eb ce 3f bc 4b 34 40
       2.7804983 3.0319574 1.6165627 2.8171225
000020 9a 19 33 40 7c 38 47 bd 9c 69 64 3d 1d c4 58 40
       2.7984376 -0.048637852 0.05576478 3.3869698
000030 b4 d9 2c 40 d6 e3 38 40 a2 08 47 40 d0 5f 45 40
       2.7007875 2.888906 3.109902 3.083973
000040 47 be 2a 40 69 6b 4f 40 b7 5b 17 40 be a5 31 40
       2.6678636 3.2409308 2.3649728 2.775741
000050 b7 14 4c 40 cd 82 79 40 1f 1a 31 40 ed c6 4f 40
       3.1887643 3.8986084 2.7672193 3.2465165
000060 13 79 30 40 25 aa 57 40 fb 00 3a 40 ec 2a 59 40
       2.7573898 3.3697598 2.9063098 3.3932447
000070 d6 0b 32 40 71 94 e4 3c 49 83 2b 40 4e 00 2f 40
       2.7819724 0.027902814 2.679888 2.7343936
000080 a4 2b 3f 40 31 5f 3b 40 56 fe 37 40 fe 87 4c 40
       2.9870386 2.927685 2.8748984 3.1958003
000090 0b 6c 4d 40 78 59 5f 40 7c 3b 3b 40 44 8c 41 40
       3.2097194 3.4898357 2.9255056 3.0241861
0000a0 ae 8f 48 40 87 0f 1a 40 04 d5 21 bc ec 21 33 40
       3.1337695 2.4071977 -0.009877447 2.7989454
0000b0 36 dd 05 bb 3e 62 4c bd 27 b0 52 40 85 96 34 40
       -0.0020426041 -0.04989838 3.2920015 2.821687
0000c0 cf e3 44 40 42 94 1b 40 61 8e 39 40 ec f3 21 40
       3.0764043 2.430924 2.899315 2.5305128
0000d0 bb 6a 5a 40 79 e2 2f 40 3a 61 3c 40 8a 9a 51 40
       3.4127643 2.7481978 2.9434342 3.2750573
0000e0 73 af 39 40 96 67 35 40 a8 25 6e 40 a9 32 d6 3b
       2.9013336 2.8344474 3.7210484 0.006536801
0000f0 6b f2 36 40 29 78 5c 40 3a e7 2e 40 05 3f 3b 40
       2.858546 3.444834 2.732863 2.9257214
000100 52 fa 32 40 f2 81 23 40 d9 de 3b 40 50 a1 21 40
       2.7965283 2.5548062 2.9354765 2.5254707
000110 81 82 44 40 fd 60 5f 40 f4 39 50 40 ad f0 9b 3d
       3.0704653 3.4902947 3.2535372 0.07614265
000120 75 64 1a 40 c3 8a 2b 40 61 eb 46 40 86 66 3d 40
       2.4123814 2.6803443 3.1081164 2.9593825
000130 7f dc 2b 40 0c 54 3c 40 73 ce 28 40 f0 a9 99 3c
       2.685333 2.9426298 2.6376007 0.01875779
000140 42 63 33 40 c4 dc 21 40 90 57 49 40 a5 51 3b 40
       2.8029332 2.5290995 3.1459694 2.9268582
000150 b2 92 3c 40 09 26 10 40 5c f0 2e 40 a0 3a 8d 3b
       2.9464536 2.2523215 2.7334204 0.004309967
000160 ad 00 27 40 2c 25 92 bc 68 b4 51 40 e9 6f 49 40
       2.6094162 -0.01783999 3.2766361 3.1474555
000170 a9 a8 4f 40 17 8e 32 40 04 cd ca bc 3d 9c 34 40
       3.2446692 2.7899225 -0.024755962 2.822036
000180 0d 42 32 40 eb 0f 2e 40 19 a6 4d 40 27 4e 37 40
       2.7852814 2.7197216 3.2132628 2.864145
000190 06 87 67 40 eb f7 3f 40 6a 70 65 40 73 d7 1d 40
       3.6176162 2.9995067 3.5849862 2.466275
0001a0 6e ca 45 40 d3 7e 6c 40 ed 6d 2d 40 49 ec 68 40
       3.0904803 3.6952407 2.7098343 3.6394217
0001b0 47 72 13 40 b0 40 23 40 39 bd 41 40 e5 86 34 40
       2.30385 2.5508232 3.0271742 2.8207333
0001c0 98 6b 60 bd f5 85 32 40 ba 7c 28 40 17 de 25 40
       -0.05479011 2.789426 2.6326127 2.5916803
0001d0 7a 65 4f 40 47 00 4b 40 ac 94 1a 40 96 94 3e 3b
       3.2405686 3.171892 2.4153242 0.0029080263
0001e0 a2 99 1b bd c2 58 4d 40 1c 84 39 40 24 d4 27 40
       -0.037988313 3.2085423 2.8986883 2.622323
0001f0 53 32 36 40 cb 5e 4f 3b 88 8c 4a 40 5e 5c 62 40
       2.8468215 0.0031642194 3.1648273 3.5368876
000200 92 4f 2e 40 34 73 85 40 49 06 33 40 ce 0f 68 40
       2.7236066 4.170313 2.7972586 3.6259646
000210 6f 05 3b 40 6d 99 46 40 e5 c7 cd 3f 9b 5f 2b 40
       2.9222066 3.1031144 1.6076628 2.6777103
000220 e8 d5 2c 40 90 81 06 3d 5e 97 c3 bb 0b dc 81 40
       2.7005558 0.032838404 -0.005968972 4.0581107
000230 80 f5 29 40 29 2c 2a 40 5f 9a 56 40 fe ac 59 40
       2.6556091 2.6589453 3.353172 3.4011836
000240 52 89 2e 40 36 6d 61 40 49 6f 16 40 b3 79 32 40
       2.7271314 3.5222907 2.3505423 2.788678
000250 e4 6c 7b 40 c2 99 80 40 7f 0d 36 40 e8 76 81 40
       3.9285212 4.0187693 2.8445737 4.045765
000260 eb a9 32 40 61 79 7d 40 90 cc 38 40 99 97 63 40
       2.791621 3.9605334 2.8874855 3.5561278
000270 64 88 31 40 d4 25 98 3d 2f 82 28 40 fe e8 31 40
       2.7739496 0.0742909 2.6329458 2.7798457
000280 bf 17 3c 40 32 c6 32 40 5c d5 34 40 a8 04 5d 40
       2.9389493 2.793347 2.8255224 3.4534092
000290 75 f5 79 40 29 06 81 40 de f7 33 40 11 0d 4a 40
       3.9056065 4.032002 2.8120036 3.1570475
0002a0 07 e4 43 40 f0 37 17 40 32 22 69 3d 77 f1 2a 40
       3.0607927 2.3627892 0.056917377 2.6709878
0002b0 46 90 e3 bc f8 5f 12 3c 19 36 81 40 51 a9 2f 40
       -0.027778756 0.008934014 4.0378537 2.7447093
0002c0 f0 fc 57 40 f0 77 18 40 9b a1 29 40 bb 79 24 40
       3.374813 2.3823204 2.6504886 2.5699298
0002d0 04 d9 75 40 b1 4f 31 40 45 14 6d 40 34 40 80 40
       3.8413706 2.770489 3.7043622 4.0078373
0002e0 ed 5c 2a 40 d2 0e 35 40 e5 d8 82 40 a0 20 e5 bc
       2.6619217 2.8290296 4.0889764 -0.027969658
0002f0 df a3 2c 40 29 87 80 40 3e ef 29 40 00 02 5a 40
       2.697502 4.016499 2.6552272 3.406372
000300 2f 9e 36 40 b4 2b 28 40 f4 d7 36 40 e4 95 18 40
       2.8534048 2.6276674 2.8569307 2.3841486
000310 32 e7 47 40 ed c1 74 40 9a b3 84 40 69 3d a7 3c
       3.123486 3.8243363 4.146924 0.020415025
000320 d1 0c 19 40 ba 80 32 40 a7 05 4c 40 70 56 36 40
       2.3914073 2.7891068 3.187845 2.8490257
000330 a9 a1 2b 40 20 44 3c 40 d2 06 20 40 6c 71 d6 3d
       2.681742 2.941658 2.5004163 0.10470852
000340 03 f9 31 40 4f 6d 1d 40 99 9f 72 40 13 bc 2d 40
       2.7808235 2.4597967 3.790991 2.7146041
000350 24 bd 40 40 98 d5 0f 40 b2 c7 2e 40 99 38 64 3d
       3.0115442 2.2474117 2.7309384 0.05571804
000360 ac 10 24 40 51 ba 00 bd c8 75 77 40 6e bd 6f 40
       2.5635176 -0.031427685 3.8665638 3.7459369
000370 41 db 61 40 fb 76 2b 40 8e 3b 51 3d f7 f3 35 40
       3.5290072 2.679137 0.051082186 2.8430154
000380 40 1a 2d 40 c5 b5 33 40 32 80 6d 40 66 b3 34 40
       2.7047272 2.8079693 3.7109494 2.8234496
000390 75 e0 82 40 30 b1 3e 40 31 ca 81 40 fb 16 1d 40
       4.0898995 2.9795647 4.0559316 2.4545276
0003a0 c6 de 73 40 1c 80 82 40 79 49 2c 40 84 d5 7d 40
       3.810472 4.0781384 2.6919844 3.966157
0003b0 81 c5 19 40 b6 ab 2b 40 ae 67 40 40 8d e1 35 40
       2.4026797 2.6823554 3.006328 2.8418915
0003c0 fa 21 e5 bc 64 39 35 40 d9 e9 2b 40 05 35 26 40
       -0.027970303 2.8316278 2.686148 2.596986
0003d0 54 cf 7b 40 99 2a 63 40 fe 3d 1f 40 e6 aa 37 bd
       3.9345293 3.549475 2.4881587 -0.044840716
0003e0 20 3b 9a 3c 2f 86 76 40 ee 13 30 40 78 7d 2a 40
       0.018827021 3.85194 2.7512164 2.663908
0003f0 51 63 2b 40 4e 39 5b 3d 5d df 81 40 9a ed 7d 40
       2.6779368 0.053521447 4.058516 3.967627

layer2.bias f4 [128]
000000 3b 4f b0 40 a0 06 af 40 d3 71 36 bd 7e 24 b1 40
       5.5096717 5.4695587 -0.044542145 5.5357046
000010 28 f4 b1 40 09 e4 b0 40 29 2c b1 40 87 ca b1 40
       5.561054 5.5278363 5.5366406 5.5559726
000020 61 f9 ae 40 0f fa b0 40 82 67 ae 40 eb 62 af 40
       5.4679418 5.5305247 5.450135 5.480825
000030 1c c2 af 40 5c cb b3 bd 8a 0e ae 40 4b ad ad 40
       5.492445 -0.08779022 5.439275 5.427404
000040 16 1f b2 40 e9 80 b1 40 b8 ff ad 40 6e bd b1 40
       5.5662947 5.546986 5.4374657 5.5543737
000050 33 24 04 bd e9 30 b1 40 ca 37 b0 40 38 f7 af 40
       -0.032261085 5.5372205 5.50681 5.498928
000060 6f c8 ad 40 b2 bb b1 40 55 06 cc bd a6 7c ad 40
       5.430717 5.554162 -0.09962145 5.421466
000070 4f e0 b1 40 76 6c b0 40 4d 70 af 40 e2 f1 c6 bb
       5.5586314 5.51324 5.4824586 -0.006071315
000080 12 32 af 40 07 2c cf bc f2 ab 68 bd 4a 22 2e bd
       5.474862 -0.025289549 -0.056804605 -0.04251317
000090 f3 3d b2 40 c7 bc af 40 8d fd af 40 85 05 b1 40
       5.570062 5.491794 5.499701 5.531924
0000a0 7b 68 b1 40 ae 50 47 bd 44 e1 ae 40 76 6a b2 40
       5.544004 -0.048660927 5.4649982 5.5754957
0000b0 d9 22 b1 40 2e 78 62 bd 73 a3 b1 40 15 e6 af 40
       5.535504 -0.055290394 5.5512023 5.496836
0000c0 35 21 b0 40 62 bb 60 3d 82 6e b2 40 02 d4 b0 40
       5.5040536 0.054866202 5.5759897 5.52588
0000d0 b0 0f 6c 3d 60 42 af 40 48 7c b2 40 d2 8f b0 40
       0.05763215 5.4768524 5.577671 5.517556
0000e0 7f 3b b2 40 36 ea af 40 4c 79 af 40 1b 16 af 40
       5.5697627 5.49734 5.4835567 5.4714484
0000f0 2b eb b0 40 c0 8c b1 40 e9 c5 b1 40 b9 c3 ae 40
       5.528707 5.5484314 5.555409 5.461392
000100 a9 13 ae 40 2b 28 ae 40 fd 79 98 bd 4f ea ad 40
       5.4399 5.4424033 -0.074451424 5.434852
000110 3c ce b9 bc c4 4f b1 40 a1 fb b1 40 09 22 b0 40
       -0.022681348 5.540987 5.5619664 5.5041547
000120 13 1b b2 40 04 80 b0 40 19 b2 9c bc df c4 b0 40
       5.565805 5.515627 -0.019127892 5.524032
000130 c9 16 a8 40 11 dc ad 40 db 7c b2 40 1f 81 b1 40
       5.2527814 5.4331136 5.577741 5.547012
000140 a5 16 b1 40 31 77 af 40 93 57 af 40 ac 48 af 40
       5.534014 5.4832997 5.47944 5.477621
000150 d3 d7 b2 40 07 dc 79 bd d8 56 af 40 37 3f b2 40
       5.5888457 -0.06100085 5.479351 5.5702167
000160 1e 28 b1 40 dc c9 b2 40 c0 c7 b0 40 2c 18 44 bd
       5.536147 5.587141 5.5243835 -0.047874615
000170 73 42 a8 40 13 eb a7 bc 68 e1 b0 40 a7 a2 b1 40
       5.2581115 -0.020497834 5.5275154 5.551105
000180 a0 bd ad 40 2f dd ad 40 c6 19 af 40 c7 66 b1 40
       5.4293976 5.43325 5.471896 5.543796
000190 6a 17 b0 40 45 62 af 40 4b 2c b2 40 60 31 b3 40
       5.502858 5.480746 5.567907 5.599777
0001a0 c5 bc b2 40 7a d2 c1 bb bb 9e ae 40 05 6a a9 bd
       5.585543 -0.0059149833 5.4568763 -0.08272175
0001b0 75 8f b1 40 bd 33 b0 40 64 66 b2 40 04 9c b0 40
       5.548762 5.5063157 5.574999 5.519045
0001c0 52 d7 b1 40 1d b7 ba bc 71 27 af 40 f0 2b b0 40
       5.557534 -0.022792393 5.4735646 5.5053635
0001d0 47 c6 3d bd 46 0d af 40 d1 16 18 3b 0e 15 b0 40
       -0.04633167 5.4703703 0.002320696 5.50257
0001e0 97 97 af 40 cc 4b a4 bd 99 db ae 40 f7 8d af bd
       5.4872546 -0.080222696 5.4643064 -0.085719995
0001f0 58 a9 b2 40 aa 4b 31 3c 16 fe ad 40 fe 1f b0 40
       5.583172 0.010821262 5.4372663 5.5039053

layer3.weight f4 [217, 128]
000000 f1 ec 8f bf 36 b1 86 bf 1b 9f 69 3d 58 55 98 bf
       -1.1244184 -1.052283 0.0570365 -1.1901045
000010 d2 1f 8d bf 54 3e 84 bf 0f 39 90 bf 55 be 85 bf
       -1.1025336 -1.0331521 -1.1267413 -1.044871
000020 9c 98 8a bf cd 0d 8a bf 48 76 82 bf 34 ae 92 bf
       -1.0827823 -1.0785462 -1.0192347 -1.1459413
000030 3e f6 91 bf 24 ac bc bc 2e 42 87 bf 99 c5 5d bf
       -1.1403272 -0.023031302 -1.0567071 -0.86629635
000040 f9 41 83 bf 14 c6 8d bf 2e 06 80 bf b4 c2 89 bf
       -1.0254508 -1.1076074 -1.0001886 -1.0762544
000050 d1 16 ab bd 48 59 8f bf 08 06 7f bf e8 c9 94 bf
       -0.08353961 -1.1199121 -0.9961858 -1.1624117
000060 37 06 86 bf 23 54 96 bf db 11 a1 ba de e0 85 bf
       -1.0470647 -1.1744426 -0.0012288647 -1.0459249
000070 ec 49 86 bf f2 c9 80 bf 1e 18 84 bf b0 43 a5 3d
       -1.0491309 -1.0061629 -1.031986 0.08069551
000080 ac 8f 95 bf a0 6d fc bc 9c 25 e8 3c ca ee ad bd
       -1.168447 -0.030813992 0.028338246 -0.08492811
000090 db de 94 bf c9 d8 82 bf 2d 9c 8d bf 8a 75 8c bf
       -1.163051 -1.0222408 -1.1063286 -1.097337
0000a0 25 7c 96 bf 28 a8 6b 3c 85 18 91 bf 71 79 81 bf
       -1.1756636 0.014383353 -1.1335608 -1.0115186
0000b0 58 39 82 bf ae 9a 64 3d 62 55 94 bf e3 18 88 bf
       -1.017375 0.055811577 -1.1588557 -1.0632595
0000c0 bf 78 7a bf 77 bf 70 3d ae e6 90 bf 86 1b 86 bf
       -0.97840494 0.058776345 -1.1320398 -1.047715
0000d0 2c 33 c8 bc c6 a0 8c bf 46 a5 84 bf ee 3e 91 bf
       -0.024438463 -1.0986564 -1.0362937 -1.134733
0000e0 fe b1 8f bf 6b 38 87 bf fa c5 84 bf 1d 7d 8e bf
       -1.1226194 -1.0564092 -1.0372918 -1.1131932
0000f0 64 22 81 bf 67 6e 96 bf 42 ce 96 bf d9 68 89 bf
       -1.008862 -1.1752442 -1.1781695 -1.0735122
000100 01 1a 83 bf f3 e2 86 bf 49 dd 90 3d d1 cc 89 bf
       -1.0242311 -1.053801 0.07073457 -1.076563
000110 ac 7e 9a bc 6b 7a 84 bf 2e 3f 89 bf b3 c4 8f bf
       -0.01885923 -1.0349859 -1.0722406 -1.1231903
000120 87 ba 80 bf 20 0c 82 bf 63 4f b5 bd 4d 89 88 bf
       -1.0056924 -1.015995 -0.088530324 -1.0666901
000130 88 b0 1e bf 27 1a 94 bf 9a 43 8a bf 16 94 84 bf
       -0.61988115 -1.1570481 -1.080188 -1.0357692
000140 bc ce 94 bf 50 87 7e bf 4e dc 8a bf 5b 58 81 bf
       -1.162559 -0.9942522 -1.0848482 -1.0105089
000150 bd 6a 89 bf c0 cc bd 3c 4d 7b 84 bf 18 dd 8d bf
       -1.0735699 0.023168921 -1.0350128 -1.1083097
000160 4f ef 84 bf b7 90 8f bf 14 75 83 bf 5e b5 4c 3d
       -1.0385531 -1.1216038 -1.0270104 0.049977653
000170 c4 aa 41 bf 50 e8 85 bd b1 dd 81 bf 98 db 97 bf
       -0.7565119 -0.06538451 -1.014578 -1.186389
000180 f9 14 8a bf 6a 50 85 bf 28 d3 8d bf d9 34 8c bf
       -1.078765 -1.0415165 -1.1080065 -1.0953628
000190 9c c8 87 bf c3 ca 92 bf 9e 25 84 bf 96 2a 93 bf
       -1.0608096 -1.1468128 -1.032398 -1.1497371
0001a0 9a 91 82 bf b7 07 58 bd c9 c2 92 bf c0 d7 42 3c
       -1.0200684 -0.052741732 -1.1465694 0.011892259
0001b0 c4 df 91 bf 7c 42 82 bf 16 f1 90 bf dd 00 7b bf
       -1.1396413 -1.017654 -1.1323574 -0.9804819
0001c0 76 35 83 bf eb 09 e0 bb 7d 2a 8b bf 44 6a 85 bf
       -1.025069 -0.00683712 -1.0872341 -1.0423055
0001d0 b8 6b c6 3c 30 bc 8e bf e5 fb 06 bd 68 fd 91 bf
       0.024221286 -1.115118 -0.03295507 -1.1405458
0001e0 48 b0 83 bf 26 e8 40 bd 11 94 8d bf 94 94 93 bd
       -1.0288172 -0.047096394 -1.1060811 -0.072060734
0001f0 00 89 8c bf 32 4c 8d bd 9f 8e 84 bf 42 46 88 bf
       -1.0979309 -0.06899299 -1.0356025 -1.0646441
000200 e5 cb 8f bf 4a 54 8a bf 2c b2 82 3c 85 92 8d bf
       -1.1234099 -1.0806973 0.0159541 -1.1060339
000210 c0 a9 8d bf bc b3 7f bf db 3a 8e bf 29 e7 89 bf
       -1.1067429 -0.9988363 -1.1111711 -1.077367
000220 ab 6e 88 bf bf 66 84 bf 4f 4f 90 bf 10 73 91 bf
       -1.0658773 -1.0343856 -1.1274203 -1.1363239
000230 5f 1a 94 bf 34 85 9f 3c 3e ea 85 bf 62 35 63 bf
       -1.1570548 0.019472696 -1.046211 -0.8875333
000240 b8 e6 82 bf ef c1 8a bf 07 2b 93 bf 53 ee 88 bf
       -1.022666 -1.0840434 -1.1497506 -1.0697731
000250 fd ae 2e bd d8 04 90 bf 63 56 86 bf 8c 24 8e bf
       -0.04264735 -1.1251478 -1.0495113 -1.1104903
000260 f9 6a 89 bf 87 5d 7f bf 70 68 c1 3c bc 9c 94 bf
       -1.073577 -0.99752086 0.02360937 -1.1610332
000270 b1 cb 86 bf 06 7e 8a bf b0 e1 82 bf cf 16 92 3d
       -1.0530912 -1.0819709 -1.0225124 0.07133257
000280 d8 fc 91 bf f0 8d b5 3b b6 6f 2f 3d 00 19 28 3c
       -1.1405287 0.005540602 0.042831145 0.010259867
000290 91 8d 80 bf 82 82 85 bf a3 ca 89 bf 27 d2 95 bf
       -1.0043203 -1.0430453 -1.0764965 -1.1704758
0002a0 7e fd 7c bf 82 2e 38 3d 9d a5 90 bf 23 73 8d bf
       -0.988243 0.04496623 -1.1300541 -1.1050762
0002b0 5f 4f 92 bf 46 ed fe bc 59 0e 92 bf 7e f3 8b bf
       -1.1430472 -0.031119 -1.1410629 -1.0933683
0002c0 a0 a6 8a bf c6 13 40 3d ac 60 8a bf 66 e1 93 bf
       -1.08321 0.046893857 -1.0810752 -1.1553161
0002d0 38 50 4f bd aa 29 84 bf 77 5b 89 bf d3 25 84 bf
       -0.050613612 -1.0325215 -1.0731038 -1.0324043
0002e0 47 e3 90 bf 83 29 85 bf a3 36 82 bf b5 09 92 bf
       -1.131936 -1.0403293 -1.0172924 -1.1409212
0002f0 b3 3e 8a bf e6 8b 8e bf 73 2f 8c bf 42 30 8d bf
       -1.0800384 -1.1136444 -1.095198 -1.1030352
000300 c0 43 89 bf ef 85 94 bf 2f 1b 92 3d 0e 78 8f bf
       -1.0723801 -1.1603373 0.07134091 -1.1208513
000310 eb 4c 46 bd 42 ef 92 bf a6 77 7f bf e3 fa 7e bf
       -0.0484132 -1.1479266 -0.99791944 -0.9960157
000320 da 5d 87 bf 9a 09 8c bf ea 20 89 bd 9c 8b 84 bf
       -1.0575516 -1.094043 -0.06695731 -1.0355105
000330 a6 90 00 bf e7 a6 80 bf a5 9b 85 bf da 57 8b bf
       -0.50220716 -1.0050935 -1.0438124 -1.0886185
000340 cf ed 8f bf 01 2f 88 bf 47 a1 8f bf ae f6 78 bf
       -1.1244448 -1.0639344 -1.1221093 -0.97251403
000350 7a 07 8a bf 67 38 9e bd 47 1c 86 bf a2 33 94 bf
       -1.0783532 -0.07725602 -1.047738 -1.1578257
000360 20 eb 92 bf f2 d8 82 bf fe 8e 92 bf 70 b6 9b 3b
       -1.1478004 -1.0222456 -1.1449888 0.004751973
000370 37 6a 35 bf b8 af 83 3c a8 e8 92 bf 34 78 8b bf
       -0.70865196 0.016075 -1.1477251 -1.0896058
000380 6b b9 92 bf 0f 1d 81 bf 8f cc 8b bf d3 ba 85 bf
       -1.1462835 -1.0086993 -1.0921801 -1.0447639
000390 48 2c 95 bf 20 f3 86 bf 1d be 86 bf 28 1f 83 bf
       -1.1654139 -1.0542946 -1.0526768 -1.0243883
0003a0 c8 56 88 bf 8a e3 e6 bc e0 78 81 bf c0 be 31 bc
       -1.0651484 -0.028184671 -1.0115013 -0.010848701
0003b0 08 7d 92 bf 03 dc 86 bf 8c 04 8c bf f9 ff 8d bf
       -1.1444407 -1.0535892 -1.0938888 -1.1093742
0003c0 d6 db 8a bf d4 0a b0 bc 3d 50 7b bf 90 85 8d bf
       -1.0848339 -0.021489538 -0.9816931 -1.1056385
0003d0 20 95 f5 3c bb 06 8e bf 8f 10 95 3d 8a ba 8d bf
       0.029978335 -1.1095804 0.07278549 -1.1072552
0003e0 91 c8 81 bf 01 61 83 bd 80 d7 8b bf 00 ea dd 39
       -1.0139333 -0.064149864 -1.092514 0.00042326748
0003f0 5d 42 92 bf 8e d0 76 3d f8 87 91 bf eb 65 8b bf
       -1.1426502 0.060257487 -1.1369619 -1.0890478

layer3.bias f4 [217]
000000 ef ea d5 bf 29 2e b2 bf b5 89 ba bf ff 30 cf bf
       -1.6712321 -1.3920337 -1.4573275 -1.6186827
000010 07 fc d8 bf 8f ef b6 bf 0e 58 e0 bf 83 90 e7 bf
       -1.6951913 -1.4291857 -1.7526872 -1.8090976
000020 7a 52 c7 bf bb d4 d9 bf a5 2a 98 bf 3c d3 8a bf
       -1.5572045 -1.7018045 -1.1888014 -1.0845714
000030 37 9d d2 bf 06 6b dc bf 42 1d 08 c0 85 30 df bf
       -1.6454228 -1.7220161 -2.1267858 -1.7436682
000040 1e f8 d0 bf b2 75 a8 bf 84 95 df bf e2 68 8c bf
       -1.6325719 -1.3160918 -1.7467504 -1.0969508
000050 65 49 a0 bf 64 2e d5 bf a4 99 ed bf e3 7c b7 bf
       -1.2522398 -1.6654782 -1.8562512 -1.4334987
000060 f2 01 c5 bf 46 27 af bf 66 cc c4 bf 49 0c dc bf
       -1.5391219 -1.368386 -1.5374877 -1.7191249
000070 15 77 be bf c3 8e c0 bf 9b 68 9c bf fa b0 d8 bf
       -1.4880091 -1.5043567 -1.2219423 -1.6929009
000080 ba 52 dd bf a5 64 d7 bf fe af d8 bf 93 3f b7 bf
       -1.7290871 -1.6827589 -1.6928709 -1.4316276
000090 6c c3 d2 bf a5 35 c7 bf 70 ff e5 bf a9 7a cc bf
       -1.6465888 -1.5563246 -1.7968578 -1.5974933
0000a0 2a 59 be bf e3 34 b8 bf b8 67 ed bf b8 4f 0c c0
       -1.4870961 -1.439114 -1.8547277 -2.1923656
0000b0 d0 9f a8 bf a3 f5 ac bf bf 4a 96 bf 17 9a cd bf
       -1.3173771 -1.3512462 -1.1741561 -1.606265
0000c0 b7 ed a3 bf ec c7 9a bf ff 2f ce bf fc dc c0 bf
       -1.280692 -1.2092261 -1.6108397 -1.5067439
0000d0 0d c0 cb bf 4e 51 e6 bf af a8 c9 bf 4d 79 cd bf
       -1.5917984 -1.7993562 -1.5754603 -1.6052643
0000e0 26 c6 01 c0 a7 78 c9 bf df 71 94 bf 8d 23 a6 bf
       -2.027719 -1.5739945 -1.1597251 -1.2979599
0000f0 66 37 df bf 0f e9 b6 bf da 8b cb bf 8b c8 cd bf
       -1.7438781 -1.4289874 -1.5902054 -1.6076826
000100 13 ab 96 bf de e9 b2 bf a9 14 d0 bf 59 09 b6 bf
       -1.1770958 -1.3977621 -1.6256305 -1.4221603
000110 c1 76 09 c0 d3 79 bb bf c4 d4 f9 bf ee fc d3 bf
       -2.1478732 -1.4646553 -1.9518056 -1.6561563
000120 63 f3 aa bf 3e 69 e7 bf ca ff 95 bf e6 c5 c5 bf
       -1.3355526 -1.8078992 -1.1718686 -1.5451019
000130 97 ab d4 bf 86 28 d1 bf 4f 8f df bf bc c3 aa bf
       -1.6614865 -1.6340492 -1.7465609 -1.3340983
000140 ef 0a d3 bf f6 60 d6 bf 1b 4e aa bf 4c c0 e7 bf
       -1.6487712 -1.674834 -1.3305086 -1.8105559
000150 d9 9a c0 bf 48 29 f1 bf 00 7a d6 bf 48 b3 af bf
       -1.5047256 -1.8840723 -1.6755981 -1.3726587
000160 29 c4 9c bf 17 f6 aa bf 94 cc fc bf 47 fa b3 bf
       -1.2247363 -1.3356351 -1.9749932 -1.4060754
000170 a5 4b 9e bf d9 1f 02 c0 76 79 d0 bf 0f ec af bf
       -1.2366835 -2.0331938 -1.6287067 -1.3743914
000180 60 ec cf bf 62 66 c8 bf aa b2 d8 bf 64 26 c7 bf
       -1.6244011 -1.5656245 -1.6929524 -1.5558591
000190 a8 a4 b1 bf a3 c5 d2 bf b8 70 c2 bf 88 08 cd bf
       -1.3878374 -1.6466564 -1.5190649 -1.6018229
0001a0 1e 98 cf bf 45 ba b6 bf 0d ab b8 bf f9 7e ef bf
       -1.6218297 -1.4275595 -1.44272 -1.8710624
0001b0 26 b7 a6 bf a0 52 e2 bf ad 92 ad bf 93 82 ca bf
       -1.3024642 -1.7681465 -1.3560387 -1.5821098
0001c0 aa d7 c4 bf 03 d4 a7 bf e4 62 be bf a9 2d cb bf
       -1.5378315 -1.3111576 -1.4873929 -1.5873309
0001d0 bb 4f da bf 6a 65 06 c0 20 b0 9a bf 2a 13 96 bf
       -1.7055582 -2.0999398 -1.2084999 -1.1724598
0001e0 12 32 b5 bf 36 16 b1 bf 9e a7 da bf 81 78 ef bf
       -1.4155905 -1.3834903 -1.7082403 -1.870865
0001f0 86 be fe bf 60 85 c0 bf 77 bb b5 bf 99 c2 97 bf
       -1.9901893 -1.5040703 -1.4197835 -1.1856261
000200 a8 96 c7 bf 15 47 fc bf 75 56 c9 bf 4e 42 f4 bf
       -1.5592852 -1.9709193 -1.572951 -1.9082735
000210 41 47 93 bf 90 55 cd bf 2e 8f b8 bf 42 fa a8 bf
       -1.150612 -1.6041737 -1.4418695 -1.3201373
000220 01 78 c0 bf 7b fa ec bf c4 23 c6 bf 29 fb b8 bf
       -1.5036622 -1.851394 -1.5479665 -1.4451648
000230 c5 7a e2 bf 35 2f ec bf fd 86 d5 bf bf d2 c9 bf
       -1.7693716 -1.8451906 -1.668182 -1.576744
000240 03 39 a4 bf 1a 75 e4 bf e2 7b 94 bf ea 7d b7 bf
       -1.2829899 -1.7848237 -1.1600306 -1.4335301
000250 00 af 02 c0 51 8e a6 bf cd 1c be bf 06 1b b9 bf
       -2.0419312 -1.3012182 -1.4852539 -1.4461372
000260 2d b1 d4 bf 73 3b c1 bf 0b f6 e7 bf b3 58 cc bf
       -1.661657 -1.5096267 -1.8121961 -1.5964569
000270 46 a2 a5 bf 66 00 ad bf b9 ab b3 bf 9a eb d9 bf
       -1.2940147 -1.3515747 -1.403678 -1.7025025
000280 db b3 de bf 48 8e df bf 94 82 b0 bf 33 1f 01 c0
       -1.7398638 -1.7465296 -1.3789849 -2.0175292
000290 1c b6 cc bf bc 47 cd bf d4 c3 ac bf 0b 85 c5 bf
       -1.5993075 -1.6037517 -1.3497262 -1.5431226
0002a0 a4 17 06 c0 52 a2 a5 bf 0a 28 8f bf 7a 2e a2 bf
       -2.095193 -1.2940161 -1.1184094 -1.2670434
0002b0 57 35 e9 bf a6 13 b1 bf 86 51 ef bf e2 ad 9d bf
       -1.8219403 -1.3834121 -1.8696754 -1.231869
0002c0 11 34 f4 bf 66 c1 bf bf 3d 3e e6 bf b5 7f b6 bf
       -1.907839 -1.4980896 -1.7987744 -1.4257723
0002d0 38 09 cb bf 9b 79 c5 bf bc ba b9 bf f9 42 ac bf
       -1.5862188 -1.5427736 -1.4510112 -1.3457938
0002e0 d6 92 ec bf b8 25 ce bf 09 b5 ff bf b0 8d a3 bf
       -1.8482311 -1.6105261 -1.9977123 -1.2777615
0002f0 d9 dd b4 bf 91 b8 b4 bf 14 9b a8 bf ed 62 d2 bf
       -1.4130203 -1.4118825 -1.3172326 -1.643644
000300 95 fc a9 bf 40 18 d5 bf bc 94 e6 bf 46 c3 df bf
       -1.3280207 -1.6648026 -1.801414 -1.7481468
000310 4d e4 b9 bf b0 90 a6 bf 50 ad de bf 62 17 ba bf
       -1.4522797 -1.3012905 -1.7396641 -1.4538386
000320 06 40 df bf b8 9e e6 bf 9e 3d b3 bf 14 55 da bf
       -1.7441413 -1.8017187 -1.4003179 -1.7057214
000330 43 72 c7 bf e2 a6 b0 bf d8 c5 ce bf 1f 58 bf bf
       -1.5581745 -1.3800929 -1.6154127 -1.4948767
000340 c6 49 b8 bf 5d 4a ea bf ac f3 f1 bf 9e 70 9b bf
       -1.4397514 -1.8303944 -1.8902488 -1.2143743
000350 74 f4 bd bf ae a7 c8 bf ea 71 d9 bf bc 63 cc bf
       -1.4840226 -1.5676172 -1.6987889 -1.5967937
000360 b2 f0 d5 bf
       -1.6714079
